models/production/model.onnx (onnx, 407668 bytes, 8 tensors)

encoder.l1.0.weight f4 [64, 784]
000000 a2 ae df 3c 2e d6 f2 3c 38 15 09 bc 35 61 06 3d
       0.027304951 0.029643144 -0.008366875 0.032807548
000010 f8 34 00 bc 20 27 ec 3b 9c 70 8e bc 78 d2 ab 3c
       -0.007825129 0.0072068125 -0.01738768 0.020974383
000020 07 f5 00 3d 7e a3 d6 bc 4e 4d fe 3c a8 07 db 3b
       0.031483676 -0.026201006 0.031042721 0.0066842623
000030 86 27 d8 3c 10 7e 9e 3b 10 13 8d 3c dc 3b a5 bb
       0.026386034 0.004836805 0.017221004 -0.005042536
000040 06 8a e1 3c 88 fa ac 3b 83 95 88 bc e4 26 15 3c
       0.027531635 0.005278889 -0.016672855 0.0091035105
000050 63 cc 86 bc 28 3e 89 bb 20 a9 6d bc 5a 15 c2 3c
       -0.016454881 -0.004188318 -0.014505655 0.023691822
000060 7a f2 e6 bc e3 e0 86 bc c6 3a 25 bc 48 ea af bc
       -0.028191794 -0.016464656 -0.010084813 -0.021474019
000070 10 e9 5c 3b bd 7b 10 bd a9 1c 04 3d b8 87 f8 bc
       0.0033708252 -0.035274256 0.032253895 -0.030338153
000080 86 df e1 3c 08 c2 c2 3b a0 ff 3d bc 66 cb b4 3c
       0.027572405 0.0059435405 -0.01159659 0.022069644
000090 d0 63 b6 3b 12 63 ec 3c e0 de 7f 3b d2 89 38 bc
       0.005566098 0.028855834 0.0039042756 -0.011263328
0000a0 e4 37 1d 3c c0 ad 1e bc 04 43 76 3c 6d 9b 02 3d
       0.009595845 -0.00968498 0.015030626 0.031886507
0000b0 ac 1f a9 3c f4 ce 7f bc 22 e4 a8 3c 10 65 d1 3b
       0.020644985 -0.015613306 0.020616595 0.0063902214
0000c0 fa 93 94 3c e3 52 b2 bc 3a cf 10 bd 7c 13 62 bc
       0.018136967 -0.02176804 -0.035353877 -0.013798591
0000d0 b3 68 e0 bc f6 10 f0 3c 1c 8a 28 3c c4 5f 72 3c
       -0.027393674 0.029304963 0.010286834 0.01479334
0000e0 d8 0e 39 3c c0 dd 22 ba 06 f8 e4 3c 40 e0 cf bc
       0.011295043 -0.0006212853 0.027950298 -0.025375485
0000f0 00 5f 13 3b 18 b1 c7 bc 14 6e 34 3c 4a 83 49 bc
       0.0022487044 -0.024376437 0.011012573 -0.012299368
000100 26 a2 3c bc b0 80 fb bc da 04 d1 3b 5c 68 ad bc
       -0.011513269 -0.030701011 0.006378752 -0.021167926
000110 30 7d ae bc e3 7f ae bc 5d 93 03 3d e0 ff 42 3c
       -0.021299928 -0.021301216 0.03212296 0.011901826
000120 77 c3 0c 3d c8 73 f1 bc ea 18 11 bd b5 e5 e4 bc
       0.034366097 -0.029474154 -0.03542415 -0.027941564
000130 43 cf c4 bc a0 01 6d 3c 88 86 51 3c d2 1a f3 3c
       -0.024024611 0.014465719 0.012788422 0.029675875
000140 60 17 97 bc 0c 73 c7 bc 66 3b 9b 3c 72 84 6c bc
       -0.018443763 -0.02434685 0.018949222 -0.014435874
000150 8e 91 b1 3c d2 da 0a bc 42 5d a7 3c 93 51 e3 bc
       0.021675851 -0.008475022 0.020430211 -0.027748859
000160 67 a5 93 bc 74 65 32 3c 40 68 f7 3b f2 2f 15 bc
       -0.018023206 0.010888446 0.0075502694 -0.009105669
000170 96 64 ae 3c 42 11 87 3a 7a 0f 49 bd d0 31 9c bc
       0.021288197 0.0010304826 -0.049087025 -0.019066721
000180 c1 f2 05 3d 3c 72 45 bc 58 71 4f bc 97 8b 0d bd
       0.03270221 -0.012051161 -0.012661301 -0.03455695
000190 05 8c a7 bc bc 2b 12 3c 40 78 9a bb 9e 5f d4 bc
       -0.020452509 0.00892156 -0.004714042 -0.0259245
0001a0 c0 9b 5b 3a a3 d9 c7 bc 75 37 f8 bc b0 1b a1 bc
       0.00083773956 -0.02439577 -0.030299881 -0.019666523
0001b0 f2 07 00 bd 98 4a ba bc 7f 3a 12 3d a8 09 dd 3b
       -0.031257577 -0.022740647 0.035700317 0.006745536
0001c0 44 51 34 3c 3b 70 08 bd 3c 27 c0 bc aa c4 42 bc
       0.011005703 -0.033310156 -0.023456208 -0.011887709
0001d0 b8 ff b6 3b 4d b8 00 bd 4e 1f 7c bc 40 27 af bc
       0.0055846833 -0.031425763 -0.015388323 -0.02138102
0001e0 00 90 cf 38 a7 a8 15 bd 91 b5 d2 bc 4e 41 c6 bc
       9.897351e-05 -0.036537793 -0.025721343 -0.024201062
0001f0 d3 d1 c8 bc cc af aa bc fc 4a 48 bc ca eb e6 bc
       -0.024514114 -0.02083578 -0.012224909 -0.028188605
000200 f6 4f f5 3c 78 42 e8 bb 3e ba fb 3c f0 51 36 3c
       0.029945355 -0.007088002 0.030728456 0.011127934
000210 a5 bf f7 bc 40 78 ca 3c c0 ff 20 bc ee 4c 60 bc
       -0.03024275 0.024715543 -0.009826601 -0.0136902165
000220 dc da f2 bc 77 6e 11 bd 64 6a 27 3c 48 a4 ff bb
       -0.029645376 -0.035505738 0.010218237 -0.0078015663
000230 44 cf 63 3c 4a 1a f0 bc ac 36 d9 3c 5e c3 d6 bc
       0.013904396 -0.02930941 0.026515327 -0.026216205
000240 c0 13 ca bb f0 6f f4 3b 60 0a 97 3c 2a 32 ec 3c
       -0.006166905 0.007459633 0.018437564 0.028832514
000250 7d f1 49 3c fb 3a 53 bd 22 ab 9e bc 4d 17 a8 bc
       0.012325642 -0.05156992 -0.019368712 -0.020518923
000260 68 a9 14 bc 60 a0 02 bd 77 e5 e0 3c a3 bb d6 bc
       -0.009073593 -0.031891227 0.027453167 -0.026212519
000270 7c 5d 9c 3c 74 a4 4d 3c 48 25 3e 3c 7a 2d 9e bc
       0.019087546 0.012551416 0.011605568 -0.019308794
000280 75 f7 04 3d dc 95 00 3c b0 8b 96 3b 3d ea 00 bd
       0.032462556 0.007848229 0.0045942888 -0.031473387
000290 e0 a2 75 3c 24 91 af bb ba 08 86 bc a2 4d fb 3c
       0.014992446 -0.0053578783 -0.016361583 0.030676667
0002a0 f8 74 02 3c 75 df a1 bc f0 14 94 bc 20 8d df ba
       0.007962458 -0.019759873 -0.01807639 -0.0017055608
0002b0 4e 5c a3 3c 18 86 15 bc 15 ef a6 bc c6 60 48 bc
       0.019941475 -0.009126209 -0.020377675 -0.012230104
0002c0 ea 3c 10 bd 80 2f 1e bc ea 97 05 3c 95 db 1e bd
       -0.035214342 -0.00965488 0.008153895 -0.03878363
0002d0 ec 61 4d 3b d3 b9 59 3c 24 6b ac 3a 59 77 92 bc
       0.0031338884 0.013288933 0.0013154489 -0.017879175
0002e0 b3 e0 5c 3c 79 11 5f 3c 04 cd 5a 3c f0 a4 cd bb
       0.013481307 0.013615006 0.013354544 -0.0062757656
0002f0 52 f2 1a bc 80 65 7a 3b 5c bc ce bb 8a 5f 2e bc
       -0.009457188 0.0038207471 -0.0063090753 -0.0106428955
000300 80 03 bb 3c 8e 6f fb 3c e0 b5 67 bb fc 02 03 bc
       0.022828817 0.030692842 -0.0035356209 -0.007996317
000310 00 9e 08 3a 60 c0 0b bb c8 ac 0c 3c 08 fa 23 3c
       0.0005211532 -0.0021324381 0.008586116 0.010008343
000320 70 dd 04 bd 98 f0 57 bc 0e 62 f6 3c 4e a2 0f 3c
       -0.03243774 -0.013179921 0.030076053 0.008766724
000330 77 78 06 bc 71 32 18 bd 01 dc 14 bd 67 b1 19 bd
       -0.008207432 -0.03715748 -0.036342625 -0.0375227
000340 f0 a4 89 bc 70 1a e2 3b dc 45 90 3c d3 9a 39 3c
       -0.016802281 0.0069001243 0.017611437 0.011328417
000350 65 72 16 bd be 37 da bc 3e cb 30 bc 69 82 0d 3d
       -0.03673019 -0.026637908 -0.010790644 0.034548197
000360 68 4a a9 3b ee 88 17 bc 20 15 72 3c c0 de 5e bc
       0.0051663406 -0.009248955 0.014775544 -0.013602912
000370 58 5e bd bc 4e 8b d5 3c 63 08 85 bc 78 9a ea bb
       -0.023116276 0.026067402 -0.01623935 -0.0071595274
000380 92 86 11 bd 3a cf c3 3c 8a a9 dd 3c 18 41 55 3c
       -0.035528727 0.023902524 0.027058382 0.013016008
000390 a5 00 cc bc 0e 60 10 bd d1 9e ed bc ac 2b da 3c
       -0.024902651 -0.035247855 -0.029006394 0.026632152
0003a0 73 67 1e 3c 93 4b 66 3c 01 65 c7 38 3a 43 35 bb
       0.009668219 0.014056104 9.507873e-05 -0.0027658478
0003b0 49 74 b4 bb 11 5e 04 bd 28 75 12 bd ad f6 1d bd
       -0.0055070263 -0.03231627 -0.03575626 -0.038565326
0003c0 ea fd 1a 3c 94 eb b9 bc 53 50 4a bc 5c 60 a8 bc
       0.009459952 -0.02269534 -0.012348252 -0.02055376
0003d0 f0 40 d5 bb 08 ec cd bc b8 2b bf bc 24 19 42 3c
       -0.0065079853 -0.025136963 -0.023336276 0.011846814
0003e0 00 e7 2d bc f2 9d b4 3c 0e b8 3b bc ee 9e d6 bc
       -0.010614157 0.02204797 -0.011457456 -0.02619883
0003f0 e4 7b ce bb c0 d2 8d bc 00 05 33 bc 6c 43 0b bd
       -0.00630139 -0.017312407 -0.010926485 -0.033999845

encoder.l1.0.bias f4 [64]
000000 e4 61 21 bb c3 f7 9c bd 89 1d 6a bd 48 eb 39 40
       -0.0024624998 -0.07664444 -0.057157073 2.9049854
000010 d1 73 0a c0 4b 36 0d 3f f4 d4 74 3f bf 8e 60 bd
       -2.1633189 0.5516097 0.9563744 -0.054823633
000020 b1 4f 1e bd f1 ec b1 bd c2 1c 26 bd 2a ab 28 40
       -0.03865022 -0.08687771 -0.04055477 2.635447
000030 af ae cd be 01 43 9d bc b8 cd 2b bd 58 30 1d bd
       -0.40172336 -0.019196989 -0.041944236 -0.038376182
000040 c4 09 82 bd 55 b8 c5 be e3 76 16 bd 4c 5f 9d be
       -0.06349519 -0.38617197 -0.036734473 -0.30736768
000050 15 05 7b bd ae 99 31 bd fb fa 8d bc ff 7e a1 bb
       -0.061284143 -0.04335945 -0.01733159 -0.004928469
000060 ab e1 fa bc 98 75 22 bd 4e 62 8a bc 93 a8 80 3d
       -0.030625185 -0.039662927 -0.016892578 0.06282153
000070 e4 8e 36 bd c4 75 29 be 41 2e 58 bd 70 68 0a 3b
       -0.044569865 -0.1654883 -0.052778486 0.0021119379
000080 a8 e6 73 bd 53 50 84 bd 2e aa 5f bd e3 29 37 bd
       -0.059546143 -0.06460633 -0.054605655 -0.04471768
000090 cc 64 fe bc f4 06 07 bc 77 92 34 3f c4 59 07 bc
       -0.031053923 -0.008241404 0.7053599 -0.008261148
0000a0 54 79 a1 bd 35 bd ba bd 72 96 2c bd 7b cc df bc
       -0.0788447 -0.091181196 -0.042135663 -0.027319184
0000b0 f6 cf 0c be 53 ed 2a bf b5 a0 e7 c0 cd c0 06 bd
       -0.13751206 -0.6676838 -7.2383676 -0.032898713
0000c0 e1 25 49 bf 85 76 c4 bc 69 2c 30 40 f7 de 10 bd
       -0.78573424 -0.023982296 2.7527106 -0.035368886
0000d0 ed 9c 76 bc 2b 75 9c be cf a1 db bf 54 c5 94 bd
       -0.015052062 -0.30558142 -1.7158755 -0.072642
0000e0 c7 e1 4d bd 8e a8 c2 c0 c0 3a ab bb 7b db ea bc
       -0.050264146 -6.0830755 -0.0052255094 -0.02866911
0000f0 00 81 af 3d 6f e7 bf bf c7 2a 02 bd 5d 1a 93 40
       0.08569527 -1.4992503 -0.031779077 4.596968

encoder.l1.2.weight f4 [3, 64]
000000 44 3d d6 3c e5 ae 82 bd 55 a4 7b 3b 55 91 a5 bb
       0.02615226 -0.06381015 0.003839751 -0.0050527253
000010 7e 9f 75 3a 1d 67 03 3d 9e 8a 60 3d 13 82 80 bd
       0.00093697745 0.03208076 0.054819696 -0.0627481
000020 b3 94 20 3d 67 a6 d1 3c 17 91 eb 3c 1d fa 9c bd
       0.03920431 0.025592042 0.028755708 -0.07664893
000030 19 f5 a4 3c da e7 48 3d 98 76 ec 3a 22 f5 6b 3d
       0.020136403 0.049049236 0.0018040715 0.057606824
000040 02 fe da bc a4 e6 ed bd c5 0d b0 bd 00 73 a9 bd
       -0.026732448 -0.11616257 -0.08596376 -0.08273888
000050 00 2a f5 3c d1 b3 99 bb 67 67 98 bd c9 86 0f bc
       0.029927254 -0.0046906252 -0.074415974 -0.008760163
000060 bd 64 88 3c 7a fa b6 bd 0a 9d 97 3d 08 d0 7a 3d
       0.016649598 -0.08934493 0.07403 0.06123355
000070 9e e7 a4 3d c5 81 16 bc 06 6e 55 3d 10 ea 66 3c
       0.0805199 -0.009186213 0.05210688 0.014093891
000080 1f d4 06 3c 33 d4 a8 3c 0f 83 cd 3a a9 45 60 3d
       0.008229285 0.020608997 0.0015679317 0.054753933
000090 90 31 2b bd a4 e5 3d bd 12 b5 97 3d e0 82 61 3d
       -0.041795313 -0.04636158 0.07407583 0.055056453
0000a0 40 ca b3 3d 3b 38 31 3d 66 56 94 3d f2 f2 7e 3d
       0.087788105 0.043266516 0.07243042 0.06224341
0000b0 b4 24 5d bd 67 ed c4 bd e8 1d aa bd bb 45 6d 3c
       -0.05399008 -0.096155934 -0.083064854 0.014481957
0000c0 39 43 6f 3b e0 35 b3 3c e4 ff 75 3d 13 dd ef bb
       0.0036508574 0.021876276 0.06005849 -0.0073200553
0000d0 2f 93 c4 bc a8 5d 21 bd 3f 68 11 be a8 90 c6 bd
       -0.023995964 -0.03939596 -0.14199923 -0.0969556
0000e0 2c 24 48 bd bb 37 d7 bd 0b 75 0a bd 83 5b d9 bd
       -0.04886262 -0.105086766 -0.033803027 -0.106131576
0000f0 aa a5 5f 3d c2 22 9a bd b4 cd 8e bc 60 c5 58 3b
       0.05460135 -0.07526161 -0.017432071 0.003307663
000100 59 d9 9e bd 08 82 39 3c 42 0a eb 3d 9b 4e 0f bd
       -0.077562995 0.011322506 0.11476566 -0.034987073
000110 b2 56 c5 3d 5c 7c 14 3e 7b 9c 22 3c 06 d3 5a 3d
       0.096356764 0.14500564 0.009925003 0.053423904
000120 be 13 31 3d 6c 1b aa 3d 83 27 60 3d ff e9 67 bc
       0.04323172 0.083060116 0.05472518 -0.01415491
000130 3b f3 7d 3e 2b c9 3d 3c b3 1d 15 3c e1 dc dc bd
       0.24799816 0.011583607 0.009101319 -0.10784317
000140 95 56 81 bd fb 96 e7 3c ae 11 9a bd 73 a6 e7 3e
       -0.06315342 0.028270235 -0.075229034 0.45244178
000150 38 25 84 3d 8c 36 ef 3d 46 a3 58 bd 56 ba ab 3d
       0.064524114 0.11680326 -0.052890085 0.0838515
000160 b1 77 cd bd 6e 69 9b bd 8c e9 c7 3d c1 2d 04 3e
       -0.10032595 -0.075884685 0.097613424 0.12908079
000170 8b 80 50 3c 36 13 ca 3a 21 e5 b5 3c 3a 47 80 bc
       0.0127259595 0.0015417102 0.022203984 -0.015658963
000180 16 4e 33 3d 56 e9 83 3d 8f ed ff bb 6e 8f f0 bc
       0.04377564 0.0644099 -0.0078103016 -0.029365268
000190 d3 71 96 bd 27 03 21 3d 17 4a 40 bc 22 35 a8 bd
       -0.07345929 0.039309647 -0.011736414 -0.08213259
0001a0 8c 07 ca bc b4 dc 17 bd cb eb dc 3d a4 7a 12 bd
       -0.024661802 -0.037075713 0.107871614 -0.03576149
0001b0 0a 8a 1b bc c0 df 11 bd fd 20 84 3d 4c ea 6b bc
       -0.00949336 -0.035613775 0.064516045 -0.014399122
0001c0 ee 4a ad bd c4 cb ae 3d 04 99 b8 3d 46 5b ea 3c
       -0.08461557 0.08534959 0.090135604 0.028607976
0001d0 9f 1b a6 3d 93 d3 b0 3c e2 19 8d bc 54 03 ad 3d
       0.08110737 0.021585261 -0.017224256 0.084479004
0001e0 9f f5 a9 3d 6c ea c3 3d 89 f3 94 bd 57 05 22 3d
       0.08298802 0.09566197 -0.07273013 0.039555874
0001f0 49 9b 92 3e 31 ed 8c bc c1 52 d9 3c 85 42 06 3d
       0.28634098 -0.017202945 0.026528718 0.03277828
000200 0e fb 03 3e 49 60 4b 3d 97 68 d1 3c 3c 23 b2 bd
       0.12888739 0.04965237 0.025562568 -0.08698127
000210 f5 88 0b bd 91 1d 70 bc 50 7c 5a bd 34 d2 a0 bc
       -0.03406616 -0.014655487 -0.05334121 -0.019631483
000220 91 28 09 bc a3 7b 9f 38 c3 df 93 3d f4 66 b2 3d
       -0.008371488 7.60474e-05 0.072204135 0.08711043
000230 4f 91 3c 3e 3f 14 ed bd a3 01 b4 3c b2 fd b0 bd
       0.18414806 -0.11576127 0.021973437 -0.086421385
000240 a2 4a 1c bd 62 55 c7 bc 02 a8 b2 bc 77 63 44 3d
       -0.038157113 -0.024332706 -0.021808628 0.04794642
000250 ae 62 86 bd fe e4 ca 3d 7f a7 db bc eb 03 0e bd
       -0.065617904 0.09906958 -0.026813267 -0.034671705
000260 56 88 81 bd fd a1 7e 3d fe b6 54 3d 0a 9b a2 bd
       -0.06324832 0.062166203 0.051932327 -0.079397276
000270 54 08 59 3c ad 3b 80 3a 48 ce 9b bd dd a2 21 3c
       0.0132466145 0.000978341 -0.076077044 0.00986549
000280 23 de 40 3d 8c da 72 3c a8 fe 19 3d af 94 63 bd
       0.047086846 0.014822613 0.037596375 -0.055561718
000290 d1 ed 3b bd 7b b2 85 bc 87 8d 53 3d 0e 85 6b 3d
       -0.045881096 -0.016320458 0.051648643 0.057499938
0002a0 57 6e b5 3c fc ab 83 bc 1b 46 b3 3c bd c1 6f bb
       0.02214734 -0.01607322 0.021884015 -0.0036583983
0002b0 58 65 a4 3d 1c aa 86 38 1f 28 50 bd 84 fe f0 3c
       0.08027142 6.421303e-05 -0.050819512 0.029418238
0002c0 59 51 95 3c c8 bc 07 bd 74 eb ae 3c da 79 62 3c
       0.018227266 -0.03313902 0.021352507 0.013822997
0002d0 a9 4a d1 bb 7f 3e 23 bd 5b 6b 1e 3d ee 64 d1 3c
       -0.006387074 -0.039854523 0.0386766 0.025560822
0002e0 03 dc 0e 3d b7 31 51 3d d5 fe 87 bd 4c 0a 73 bc
       0.03487779 0.051072802 -0.06640402 -0.014833998
0002f0 2f f7 88 3d 10 9d e1 3d f1 ee 99 bb a9 02 fd 3d
       0.066877715 0.110162854 -0.0046976735 0.12354023

encoder.l1.2.bias f4 [3]
000000 ce 38 39 3e ad fc 89 3d 26 fc 80 bd
       0.18088076 0.06737647 -0.062980935

decoder.l1.0.weight f4 [64, 3]
000000 36 29 ba 3e eb 47 1d bf ab 4b c8 bd 08 4a 6d 3e
       0.36359566 -0.61437863 -0.097800575 0.23172772
000010 d2 2d 9a bd 6e f7 19 bf 18 54 ec bc 62 93 ed bd
       -0.07528271 -0.6014317 -0.028848693 -0.11600377
000020 d9 fd d2 3d 00 b5 c3 3e 1c 0a da 3e d0 d4 cc 3d
       0.10302324 0.3822403 0.42585838 0.10001528
000030 19 02 2d 3d 59 2d 87 be 8d 62 30 bd 59 d4 61 3e
       0.04223833 -0.26401785 -0.043062735 0.2205366
000040 13 f5 2b 3d d4 1d 80 be bb c9 69 be 7d 0a b2 be
       0.041981768 -0.25022757 -0.2283086 -0.34773627
000050 d8 ce bc 3d be 6a ad 3e 5f e6 93 bc 46 73 b2 be
       0.0921914 0.338705 -0.018054185 -0.34853572
000060 5d c5 99 3d 66 4d dd 3c c6 26 8e 3e 1a 8d e4 3e
       0.07508347 0.027014446 0.27763957 0.44638902
000070 17 69 14 3e 7d 36 4a be 86 e0 75 3c 42 dd e4 bd
       0.14493214 -0.19747348 0.015007144 -0.11175014
000080 ec 48 ce 3e 7d 71 3e 3e 7d f4 8e 3e a3 d6 4a be
       0.4029001 0.1859798 0.27920905 -0.1980844
000090 ec 50 2d be f7 c8 76 3d dc d1 62 bd 6c 96 8d 3e
       -0.169254 0.06025025 -0.05537592 0.27653825
0000a0 dd 48 f6 bd 91 79 73 3e a3 c4 e5 3c e5 a4 52 3e
       -0.12025616 0.23776843 0.028047865 0.20570715
0000b0 54 90 bb 3c 49 8f d0 3e 81 d4 04 3e ca b7 c3 3e
       0.02289597 0.40734318 0.12971689 0.38226157
0000c0 a9 81 9f 3b 31 c7 40 bc 60 fb bd 3b 95 8f 04 3a
       0.0048677516 -0.011766241 0.0057977885 0.0005056796
0000d0 d3 df 66 bb 02 be 69 bc b4 03 02 3f b3 db f8 bd
       -0.0035228624 -0.014266493 0.507869 -0.12151279
0000e0 47 0d a5 be 3b 61 16 be 37 93 7a be 35 fe 0d be
       -0.32236692 -0.14685528 -0.2447022 -0.13866504
0000f0 be 40 55 bd 1c 72 3a be 6c 7f 61 be b5 a3 9b 3c
       -0.052063696 -0.18207592 -0.22021264 0.01899896
000100 cf 5e aa bc e5 0a 1d bc 0d 19 74 be f7 4f c9 bd
       -0.020797161 -0.009585117 -0.23837681 -0.09829705
000110 9a 3d 88 bd 06 0e c3 3e c3 1b 73 bd 46 c1 6f bd
       -0.066523746 0.38096637 -0.059352648 -0.05853393
000120 4b bc 59 3e 77 9a 0d be 92 7a 80 be 07 47 eb 3e
       0.21263234 -0.13828455 -0.25093514 0.45952627
000130 2f 4b 56 3e 40 fe f0 be ea ba 31 bc 60 7d 7f bc
       0.20927118 -0.47068977 -0.010847786 -0.015593857
000140 64 f2 a4 bd e8 0b f6 3b 14 4b ad bb 03 6c da ba
       -0.08054045 0.0075087436 -0.005288491 -0.001666427
000150 4b 8d 65 3f 9a 08 eb be e9 f9 8f 3b 9f 26 8d 3c
       0.8966872 -0.45905 0.0043938053 0.01723033
000160 ee 71 85 bc 36 b8 5b bc da e0 8e 3c 85 00 83 3c
       -0.016289677 -0.0134106185 0.017441202 0.015991459
000170 23 2b 23 3d 4c d1 53 3f 94 ea 51 3d af 85 cb bd
       0.03983606 0.82741237 0.0512491 -0.099376075
000180 ee 6a 58 bb 83 3f 17 bb e0 c9 91 bc 4f eb ab bd
       -0.003302272 -0.0023078627 -0.017796457 -0.08394491
000190 bc 7f 0e 3e 11 f7 5e 3e 87 78 69 be c6 b5 52 be
       0.13915914 0.21773936 -0.22799884 -0.20577154
0001a0 9f 89 03 3e 5e f5 68 3d 01 4b 66 be eb ed d7 3d
       0.12845467 0.056874625 -0.22489549 0.10543426
0001b0 76 4f d0 3c 63 29 61 be 9e a0 9d be fa 03 03 3f
       0.025428515 -0.21988444 -0.30786604 0.5117794
0001c0 c6 9d 49 3e 88 3d a9 be a5 bb 11 3e ca eb e6 3d
       0.19689092 -0.33054757 0.14231737 0.11275442
0001d0 9b 89 2a be 53 3b 0f be df da 61 be bd 83 d1 be
       -0.16654055 -0.13987474 -0.22056149 -0.4092082
0001e0 dc b2 8c be c9 9d e0 3a bb da 2c be 3e 0e a3 bd
       -0.2748021 0.0017136867 -0.16880314 -0.07961701
0001f0 dc f9 49 3c f9 42 83 be e0 05 8b bd 22 1f 27 be
       0.0123276375 -0.25637034 -0.0678823 -0.1632047
000200 70 7d 70 3b b0 57 d2 3e c2 aa 1f be 7e bb 57 3e
       0.003669586 0.41082525 -0.15592483 0.21067616
000210 27 03 b9 3e 9f 98 39 3d be d4 38 3e eb d6 50 3d
       0.36135218 0.045311566 0.18049905 0.05098621
000220 92 0b 0a 3e 9b 54 ad be c0 bd 32 be cb 00 04 bf
       0.13480976 -0.3385361 -0.17455196 -0.5156371
000230 4a 25 70 3e de eb af 3e 15 60 8c 3e 31 e3 b3 3d
       0.23451725 0.3435964 0.27417055 0.08783568
000240 73 64 48 3b be 7a 2b 3c 08 3a 82 bb 8f 5c 1f 3f
       0.003057745 0.010466276 -0.003974203 0.6225061
000250 a3 4d 13 be 25 97 e4 bd cd b0 57 3e 22 64 63 be
       -0.14385085 -0.11161641 0.21063538 -0.22206166
000260 f3 3b 86 3e 46 bd 37 3e c0 2f 00 bf 23 7c 47 3d
       0.26217613 0.17943296 -0.5007286 0.04870237
000270 50 0a 6a 3e a0 cf 99 be ac 0c ce be 56 8d 86 3d
       0.22855496 -0.30041218 -0.40244043 0.065699264
000280 20 3b ea be 4e 72 f5 bd 0d f8 23 3e 57 1a 54 be
       -0.45748234 -0.119846925 0.16012593 -0.20713173
000290 bf 72 14 3e 66 55 9a 3d 9c 4a 03 3e f0 26 68 3e
       0.14496897 0.0753582 0.1282143 0.22671103
0002a0 12 9f 74 3c e4 53 0b 3b ad 3e fd bb 8f 1b ad be
       0.014930503 0.002125972 -0.007728419 -0.33810088
0002b0 77 f6 8d be 8b 8d ce 3c 52 f9 4a 3f 94 4c 38 bd
       -0.277271 0.025213977 0.7928668 -0.044994906
0002c0 20 94 6f 3d a7 92 30 bd f0 c5 60 be f2 17 6e 3e
       0.058490872 -0.04310861 -0.21950507 0.23251322
0002d0 2f d6 c3 3e 6e 81 bf be b9 45 93 bc 39 cd da bc
       0.38249347 -0.37403435 -0.017977582 -0.026709186
0002e0 7d 31 eb 3d 96 8e e8 be 77 08 8e 3e 8e 51 aa 3e
       0.114840485 -0.45421284 0.27740833 0.33265346
0002f0 45 b7 5e 3e 29 70 84 3e 69 ca 84 3e 27 6e 00 be
       0.217496 0.2586682 0.25935677 -0.1254202

decoder.l1.0.bias f4 [64]
000000 94 3b 92 be 9c fd c4 be 22 50 9c 3d 87 2a 9a be
       -0.2856108 -0.3847474 0.076324716 -0.3011057
000010 c7 b1 81 3d 08 0c 7b 3c 9b 88 86 be a6 48 05 be
       0.063327365 0.015322693 -0.26276097 -0.13015994
000020 07 74 d3 bd 10 77 dd bd f0 f1 d1 be 2d 64 cb bd
       -0.10324865 -0.10813725 -0.41004896 -0.099312164
000030 8d 75 0d bd 30 88 09 3d 6f 29 f5 bd 48 70 fa be
       -0.034535933 0.033577144 -0.119707935 -0.4891379
000040 0e 0b 31 bd ca f3 28 bd 35 09 c1 be e5 95 c3 bd
       -0.043223433 -0.04124812 -0.37702337 -0.095500745
000050 6e d1 e7 3d 6a dd 98 bd ce ac 6e be e9 23 29 3d
       0.113192424 -0.074641064 -0.23308107 0.041294012
000060 ca 16 01 3d ea 27 24 bf 67 ac 55 be 89 10 8e bc
       0.031515874 -0.64123404 -0.20866548 -0.017341869
000070 f6 63 19 bf 15 f3 d0 bd 33 31 80 be cf 7c cb be
       -0.59918153 -0.10202614 -0.25037536 -0.3974366
000080 52 b4 82 bd a0 4d 9a be 2e 91 bb bd d5 59 e3 3c
       -0.063820496 -0.30137348 -0.0915855 0.027752796
000090 cd e3 04 3c a1 c8 ae be 7e e0 2c 3e b7 eb e4 be
       0.008110953 -0.34137443 0.16882512 -0.44711086
0000a0 f0 bf 08 bf f7 02 08 bd e7 5a df 3c 4c 3e 2d be
       -0.53417873 -0.033205952 0.027265025 -0.16918296
0000b0 b8 c3 c9 b8 ad b1 07 be 34 83 11 bf e0 76 8c bd
       -9.620882e-05 -0.13251372 -0.56840825 -0.06858611
0000c0 e1 84 9c bd e1 68 3b be 83 b0 0e be 00 1a 1e bd
       -0.07642532 -0.18301727 -0.13934521 -0.038599014
0000d0 25 6a 48 be 76 15 d8 bd 84 c2 cd 3d 78 32 82 3d
       -0.19571741 -0.10550968 0.100468665 0.063572824
0000e0 29 b8 4d bd 20 27 36 bf 58 95 01 bf 2a 05 a7 bd
       -0.050224457 -0.7115345 -0.50618505 -0.08155282
0000f0 33 4e a0 bd af 79 c9 be 5a c7 05 bf af 82 b2 be
       -0.07827415 -0.3935065 -0.5225731 -0.3486533

decoder.l1.2.weight f4 [784, 64]
000000 9d e4 ef bb 34 37 3b 3c af fc 17 bb 8c 9b 66 ba
       -0.007320954 0.011426736 -0.0023191383 -0.0008796982
000010 7c e9 06 3c 16 bb df 39 50 ca 0e bc 91 2e a8 bb
       0.008234378 0.00042673264 -0.008715227 -0.0051325043
000020 75 39 47 bc 08 f4 ea bb 4b 5e 07 3b 41 3b de ba
       -0.012159695 -0.007170204 0.0020655568 -0.0016954915
000030 cd 70 59 bc 57 5f 68 bc 8e 95 17 3c c8 63 80 39
       -0.013271523 -0.014182887 0.009251965 0.00024488405
000040 1b 39 86 bc bd b4 f1 bc c8 d3 3b 3c 2b 43 b3 bb
       -0.016384652 -0.029505128 0.011464067 -0.0054706535
000050 70 b3 5d ba 90 63 b3 3d 93 0c 72 bc 9d 46 d1 ba
       -0.0008457219 0.087592244 -0.014773506 -0.0015966479
000060 33 f2 a2 b9 58 b5 97 b9 67 c4 45 3c 56 da 79 3c
       -0.000310795 -0.00028936076 0.012070752 0.015249809
000070 fd 05 c5 bb 3f 94 d0 3b 2e 78 3b bb 2c 56 84 ba
       -0.0060126767 0.0063653286 -0.0028605568 -0.0010096482
000080 29 7d 9f bc 30 e1 9b 3b 0f 38 e9 bb 0b a4 53 3b
       -0.01946886 0.004757069 -0.0071172784 0.0032293822
000090 96 e5 97 3b 00 ee 8b 3b 10 0a e7 38 62 09 95 bc
       0.004635523 0.004270315 0.00011016813 -0.01819295
0000a0 9f a0 5b bc 1a 49 79 bb 2c f5 66 bb a9 73 cf bb
       -0.013404994 -0.0038037957 -0.0035241349 -0.0063309264
0000b0 3b c1 e0 bb 2d e5 01 3c 9a d5 55 3c da a8 6a bb
       -0.0068589724 0.007928175 0.013051415 -0.003580621
0000c0 5b f3 ec 3c e3 5c 74 bb e1 1c 05 bc 6f 0f 18 39
       0.028924635 -0.003728681 -0.008124561 0.00014501599
0000d0 71 b8 2c 3b f6 43 ff 3b 5c ee 6d bc 57 d1 c0 bb
       0.0026355053 0.007790084 -0.014522161 -0.0058843303
0000e0 ef 4d bf bb 06 39 36 bc 6e b0 91 b9 c3 cf 0f 3c
       -0.005838148 -0.011121994 -0.00027788006 0.008777562
0000f0 9e dc 30 bc d2 c6 22 3c 70 ae f2 ba c6 f2 7f 3b
       -0.010794787 0.009935098 -0.0018515121 0.0039054616
000100 15 0b 8f 3a 40 16 18 b9 c8 d1 ff b9 3a fd 5c 3a
       0.0010913337 -0.00014504138 -0.0004879369 0.00084300677
000110 04 60 09 bc d7 71 1c 3b 68 58 b2 3a e4 95 57 ba
       -0.008384708 0.0023871565 0.0013606669 -0.00082239346
000120 3a 56 b6 3a 46 20 a0 b9 bd 8e fa 3a db 3e e7 3a
       0.0013911196 -0.00030541624 0.0019116026 0.0017642634
000130 79 0d 73 3a ea 82 9a 3b 51 0d 55 3b ca f6 9b 3a
       0.0009271722 0.004715313 0.0032509158 0.001189911
000140 a9 39 96 3c 6d 94 52 3c 1c 85 77 bb 0d ed c5 3a
       0.018338041 0.01285277 -0.0037768548 0.0015100554
000150 e9 dc 0e 3b bb 85 22 bd 33 39 4b bb 8d d5 41 39
       0.0021799153 -0.039678317 -0.0031009435 0.00018485468
000160 72 ef 84 bb 72 d7 db b9 99 6d 12 bd 30 e1 38 bd
       -0.0040568644 -0.00041931454 -0.03574905 -0.04513663
000170 57 79 47 ba 11 91 81 bc f3 bf 53 3c 06 8e 9c ba
       -0.00076093286 -0.015816243 0.012924182 -0.0011944182
000180 b6 a5 1e 3d 58 f0 82 b9 a5 9d ed 3a c8 21 29 3b
       0.038732253 -0.00024974602 0.0018128647 0.0025807489
000190 2a eb db 3a 90 92 29 3b 23 9a 23 ba 23 76 2e ba
       0.0016778458 0.0025874712 -0.00062409247 -0.0006655177
0001a0 8a e6 e2 3b 03 17 68 bb 19 71 3f bb fb fe 52 bb
       0.006924455 -0.0035414107 -0.0029211699 -0.0032195437
0001b0 21 4b d5 3a 62 c0 9e 39 68 fd 1b ba 80 a6 b6 36
       0.0016273 0.00030279445 -0.0005950541 5.443406e-06
0001c0 d6 b2 92 3b ca 68 36 3b d8 23 38 ba 05 91 b4 b7
       0.0044768853 0.0027833455 -0.0007024384 -2.1525202e-05
0001d0 c3 56 90 b9 f8 65 9f 3a 23 f3 c4 ba 72 3e bc b9
       -0.00027530463 0.0012161126 -0.0015026074 -0.0003590468
0001e0 e4 86 c4 bc bf 15 92 ba d0 55 46 3a d1 8c 2a 39
       -0.023990102 -0.0011145397 0.00075658876 0.00016264922
0001f0 a1 c6 d3 3b 9c f5 10 bb fb b2 b8 3a 37 ad 80 bb
       0.0064628874 -0.002211905 0.0014091426 -0.003926899
000200 1d 8c a8 3b 19 a6 e7 ba b6 ea f2 ba 59 09 a1 b9
       0.005143656 -0.0017673402 -0.0018533084 -0.00030715278
000210 84 6c bf 3a f6 6a 49 bb e4 c2 be 3b 30 5f 88 3b
       0.0014604484 -0.003073392 0.0058215726 0.004161738
000220 52 53 1b 3c 82 2c 23 3b 6e 05 4f ba b1 6e 96 3a
       0.009480314 0.0024898355 -0.00078972324 0.001147708
000230 00 c4 62 ba e6 c6 3b 3b 6f 5f 4b bb d2 b6 2a 3b
       -0.0008650422 0.0028652488 -0.0031032225 0.002604891
000240 3a c9 e5 bc 3d 39 91 bc 46 27 34 bb 9d 3e c3 3b
       -0.028050054 -0.017727489 -0.002748923 0.005958392
000250 cc cd d6 ba 11 c1 9a 3d 5e 1b 45 3c 68 73 2c 3b
       -0.0016388237 0.07556356 0.012030451 0.0026313905
000260 d4 10 a6 3b c2 31 ec ba bb 47 30 bd 70 5d 39 3d
       0.005067924 -0.00180202 -0.043037158 0.045255125
000270 6f 5e 92 3a 75 98 86 3c 6d ff 92 bb c8 c6 58 3b
       0.001116706 0.016430119 -0.0044860155 0.0033077467
000280 25 f6 b3 bc cc ac 27 bb 05 55 e5 3b d8 0d b3 bb
       -0.021967957 -0.0025585173 0.0069986605 -0.005464297
000290 78 6e b4 bb 6f ed 3b bb 6a 6a 97 3a 81 a4 70 3c
       -0.005506333 -0.0028675457 0.00115521 0.014687658
0002a0 e9 d9 f0 3b bd 41 87 3a 9e 0d 33 3b 84 13 90 3b
       0.0073501957 0.0010319274 0.002732135 0.0043968577
0002b0 f3 46 be 3b 0c 0f 60 bb b9 cf 92 bb f2 df 23 3b
       0.0058067976 -0.0034188656 -0.004480329 0.0025005308
0002c0 3e 0d 49 3d 83 01 38 39 c7 94 c5 3b dd ff 35 ba
       0.049084894 0.0001754817 0.0060296985 -0.00069427287
0002d0 56 c4 50 ba 6b 2e 76 bb 9b 40 d4 3b e4 03 c9 3a
       -0.00079638266 -0.0037564288 0.006477428 0.0015336243
0002e0 4c 35 8d 3c be e5 42 3c f8 ed e3 b8 39 e3 47 bb
       0.017237328 0.011895595 -0.000108685286 -0.0030500425
0002f0 28 5d 43 3a 2a 51 1e bb a8 2e dd 39 5a cb d0 3b
       0.0007452541 -0.0024157264 0.00042187166 0.0063718976
000300 e4 d0 20 3c 02 c6 5c 3b 81 ac 98 3a 3a e7 f4 3a
       0.009815428 0.0033687358 0.001164809 0.0018684634
000310 08 98 44 3a 6f fa 28 bb e6 4c 7f 3b 1b d1 07 bb
       0.0007499461 -0.0025784036 0.0038955747 -0.0020724002
000320 ff db c7 ba cb 9d 43 3b be b7 3a 3b 09 46 4d 3b
       -0.0015248059 0.002984869 0.0028490867 0.0031322262
000330 31 e5 f0 b9 12 bc 86 bb c2 b6 ae 3a c2 6a 02 bc
       -0.00045947128 -0.004111775 0.0013329613 -0.007960023
000340 ab c4 50 3d 4b 29 1e 3d 67 58 2d 3b 37 7b 82 bb
       0.050968807 0.0386136 0.0026450397 -0.0039819735
000350 60 f6 36 3b 5b ec c2 3d 38 27 f0 bb e3 e8 c2 ba
       0.0027917847 0.095177375 -0.007328894 -0.0014870431
000360 41 18 35 3b ca 9a c9 39 7c b2 a9 3c 9e 1e 1a bd
       0.0027632865 0.00038453034 0.02071499 -0.037626855
000370 2e 43 8a bb 0a 45 82 3c 75 4c cb bd ea 61 11 bb
       -0.004219434 0.015902061 -0.099266924 -0.0022183605
000380 a1 59 57 3d 52 3c 1a bb bb 48 76 3b cb 50 61 bb
       0.05257571 -0.002353449 0.0037579972 -0.0034380432
000390 d0 c9 92 37 a2 28 27 bb 70 eb 5c bb 05 64 75 ba
       1.7498533e-05 -0.0025506397 -0.0033709668 -0.00093609124
0003a0 24 7c 5e 3a bd f9 85 3a dc 96 8e bb a6 38 8b 3b
       0.00084871263 0.0010221523 -0.00435148 0.0042486964
0003b0 46 f7 1f 3b 2f 59 9e 39 98 f3 c5 ba 5f 4a ed ba
       0.002440886 0.00030202555 -0.0015102504 -0.0018103829
0003c0 c0 c7 02 3d bb 96 86 bb 82 09 43 3b e7 b3 c5 bb
       0.031928778 -0.004107324 0.0029760306 -0.006033409
0003d0 2e 49 71 bb 83 ab b9 ba e7 8c b8 ba 24 46 7a ba
       -0.00368173 -0.0014165494 -0.0014080078 -0.0009547195
0003e0 7b 63 a0 3c f3 93 b5 ba 65 40 a1 39 02 5b 39 bb
       0.019578686 -0.0013853296 0.0003075629 -0.0028283005
0003f0 ac 43 1a 3b e0 d7 44 b9 18 34 f8 b8 d5 09 fb b9
       0.002353887 -0.00018772436 -0.00011835265 -0.00047881776

decoder.l1.2.bias f4 [784]
000000 c8 5f 57 b9 4e bd 46 3a 6b 03 96 b9 19 89 f5 b8
       -0.00020539679 0.0007581309 -0.00028612776 -0.00011708047
000010 4c 3c 5c 39 ca b1 d9 3a 77 94 cf 3a 84 0c c2 3a
       0.00021003297 0.0016608771 0.0015837093 0.0014804755
000020 32 48 f0 3a 62 bf 9b 3a b3 35 1a 3a 1f 3a f7 ba
       0.0018332063 0.0011882598 0.00058826356 -0.0018861926
000030 83 ad 3a 3a 9d a5 18 3b c5 ba c2 3a 64 59 52 3a
       0.0007121192 0.0023292073 0.0014856687 0.00080241845
000040 26 77 53 3a 09 05 50 3b 30 4f e2 b8 fd bc 02 ba
       0.0008066766 0.0031741282 -0.000107912696 -0.0004987268
000050 50 ba 30 ba 4f ca 83 ba 48 94 48 b9 b0 28 e0 39
       -0.000674163 -0.00100548 -0.00019128725 0.00042754924
000060 03 9f a5 ba 08 95 2b 39 64 38 4a 39 e0 b8 79 3a
       -0.001263589 0.0001636335 0.00019285228 0.0009526145
000070 41 ba 31 3a f0 61 75 38 92 05 16 ba ec 16 5e 39
       0.0006779768 5.8503763e-05 -0.0005722876 0.00021180109
000080 00 25 de 38 0d b6 e8 ba c2 87 1c ba 42 e6 e5 3a
       0.00010592677 -0.0017754451 -0.0005971157 0.0017539936
000090 bc d3 a6 39 d7 94 b4 b9 4c fd 2c b9 2b c7 58 bb
       0.00031819742 -0.0003444317 -0.00016497559 -0.0033077698
0000a0 fc 26 d5 b8 ab 6d 26 3b 04 8c 05 3a 39 e1 f8 b8
       -0.00010163893 0.0025394957 0.00050944113 -0.000118675125
0000b0 89 3c b3 ba 52 62 82 ba 91 af 3e ba 11 d2 38 ba
       -0.0013674657 -0.0009947515 -0.0007274086 -0.00070503453
0000c0 be c5 14 ba 3a 23 9a ba ae 63 0a bb 5a 68 d5 3a
       -0.0005675218 -0.0011759766 -0.0021116543 0.001628171
0000d0 8d 8d 4d 3a 86 41 6b 3a d4 fb 66 39 44 ff 7f 39
       0.0007841222 0.00089743023 0.00022028323 0.00024413789
0000e0 eb 3a 1c ba 8e 94 03 3a 38 04 b6 b9 d1 d6 49 39
       -0.0005959707 0.000501939 -0.00034716888 0.00019248879
0000f0 ce ae 6d ba 14 36 68 b9 03 a4 0b 3b 20 84 87 3a
       -0.00090668804 -0.0002214539 0.0021307475 0.0010339059
000100 67 c6 6f ba db be 08 bc 2d 25 80 bc ee f6 8f bc
       -0.0009146691 -0.008346285 -0.015642727 -0.0175738
000110 72 96 81 bc f8 da 82 bc 10 9f 84 bc 5e 45 47 3b
       -0.015818808 -0.015973553 -0.016189128 0.0030406336
000120 31 f3 fc 3c 4f 44 22 3d 6a 82 bf 3c 1f 18 9b 3b
       0.030877681 0.039615925 0.023377616 0.0047331
000130 60 93 a9 bb 40 2c c2 bb 99 7b d0 bb 87 d0 99 bb
       -0.005175039 -0.005925685 -0.0063623902 -0.004694048
000140 d6 9b 01 3a a7 f3 d9 ba e0 d5 81 ba ee 52 77 3a
       0.0004944181 -0.00166284 -0.0009905659 0.000943466
000150 ab c7 0d ba e0 e6 34 b8 d8 f1 e3 39 97 e9 5e ba
       -0.0005408476 -4.3130363e-05 0.00043477002 -0.00085034355
000160 12 7c d0 ba 40 1d ee 39 6d dd 28 3b 18 3a 38 b9
       -0.0015906116 0.0004541669 0.0025766746 -0.00017569249
000170 ba 93 18 bc 21 c4 b8 bc df 63 bd bc c2 9c 99 bc
       -0.0093125645 -0.022554459 -0.023118911 -0.018751506
000180 18 e4 dc bc 31 8e a9 bc b0 22 b3 3c 9d 77 70 3d
       -0.026964232 -0.020697685 0.021867126 0.058707822
000190 1a db 9f 3d 54 b4 91 3d 25 7b 54 3d 92 fe a6 3c
       0.07805462 0.07114473 0.051875252 0.02038506
0001a0 2c c4 cd ba d4 50 b4 bc f5 68 7f bc 61 56 35 bc
       -0.0015698723 -0.022011198 -0.015588989 -0.011067958
0001b0 57 ad c3 bb 20 bc 6c 3a c0 6f 63 b5 a6 7f a7 3a
       -0.0059715915 0.00090307184 -8.472671e-07 0.0012779131
0001c0 fb d8 91 3a 98 ee cb b9 0b 6e dd b9 ce 92 1f ba
       0.0011127287 -0.00038896943 -0.00042234393 -0.0006087244
0001d0 88 fd d7 3a a9 25 e3 3b 9a 10 58 3b 7d 12 8c 3c
       0.0016478756 0.0069319797 0.003296888 0.01709866
0001e0 42 46 0b 3d 5e 72 7f 3d 6a cf c2 3d 1e bb 11 3e
       0.03400255 0.06236493 0.09512217 0.14231536
0001f0 d2 11 3c 3e 49 48 76 3e fb 5f 9d 3e 9c aa a3 3e
       0.18366173 0.24051012 0.3073729 0.31966102
000200 3a 88 82 3e 7a ed 24 3e a0 a2 83 3d 28 9d b7 3b
       0.25494558 0.16106215 0.06427503 0.0056034513
000210 41 fb ed bb 6d 22 8d bc 37 80 ec bc 07 97 a9 bc
       -0.007262618 -0.01722833 -0.028869731 -0.020701898
000220 d9 46 b1 bb 6c a2 30 bb 20 63 cc ba ca 5f 6a ba
       -0.005410057 -0.002695228 -0.0015593506 -0.0008940665
000230 ca af fa b9 a5 2c 8a ba 1c dc 57 39 71 07 9a 3b
       -0.0004781469 -0.001054187 0.00020585995 0.004700594
000240 d0 99 1e 3b d9 f4 0f bc f1 20 28 ba 57 3f 2c 3d
       0.0024200566 -0.008786404 -0.00064136 0.042052593
000250 48 c5 d2 3d 35 b3 32 3e 42 0c 86 3e 9a 2c c7 3e
       0.10291535 0.17451175 0.26181227 0.38901216
000260 a3 72 02 3f c6 d2 27 3f 71 f3 2f 3f c4 27 15 3f
       0.5095617 0.6555599 0.6873084 0.582638
000270 f1 8d d6 3e fe 63 7c 3e c8 5e c8 3d fd 59 4d 3c
       0.41905168 0.24647519 0.09783703 0.012533662
000280 f5 bd 0b 3c e7 dc 55 3c a0 91 2f bc cd 71 55 bc
       0.008529176 0.0130531555 -0.010715872 -0.0130276205
000290 13 06 be ba 0b 7e 41 3c 03 d5 5c 3c 28 dc 2c 3a
       -0.001449766 0.011809836 0.01347852 0.0006594085
0002a0 9c c1 b6 ba 46 cb 6d ba 1c c2 7c 3a 92 86 2c 3c
       -0.0013943198 -0.00090711226 0.00096419617 0.010530131
0002b0 d0 3c 22 bc de 60 d1 bc 2a 50 3c ba 5b 49 8c 3d
       -0.009902194 -0.025558885 -0.0007183576 0.06849929
0002c0 a0 8b 20 3e a7 30 90 3e 34 73 d8 3e bf e4 11 3f
       0.15678263 0.2816212 0.42275393 0.56989664
0002d0 05 5b 39 3f f0 4d 56 3f b8 d6 4c 3f b3 2e 24 3f
       0.7240451 0.83712673 0.80015135 0.6413376
0002e0 55 3e f2 3e 4c 88 ab 3e b7 7c 55 3e 7e 7b da 3d
       0.4731318 0.33502424 0.20848356 0.106680855
0002f0 e3 c1 24 3d 08 a2 7a 3c 19 12 76 bc f8 d0 84 3a
       0.040223967 0.01529742 -0.015018963 0.0010133078
000300 bf 57 e7 3b 5f 2b 97 3c ad 66 45 3c e4 16 2f 3b
       0.0070600207 0.018453298 0.012048406 0.0026716525
000310 46 c6 db b9 97 f5 51 ba 1d 0e a7 ba e5 ec a8 b9
       -0.0004191866 -0.0008009313 -0.0012745295 -0.00032219957
000320 34 bf aa bc 2b 3c 4b bd b2 43 c8 bc dd ac 2a 3d
       -0.020843126 -0.049617928 -0.024446342 0.04166876
000330 66 d2 1b 3e ed e2 a1 3e 88 e1 e6 3e 49 99 11 3f
       0.1521698 0.31618443 0.45093942 0.5687452
000340 85 38 33 3f a8 3a 35 3f 35 30 1f 3f b5 b9 f4 3e
       0.70008117 0.7079263 0.62182933 0.47797933
000350 c6 89 d8 3e ce e0 c5 3e bc 1e 95 3e 12 c4 44 3e
       0.42292613 0.38648075 0.2912501 0.1921542
000360 79 47 af 3d e1 67 1d 3c cb 68 32 bd 11 46 8e bc
       0.08558554 0.009607286 -0.04355697 -0.017367395
000370 b5 0b 5a 3c e6 7e ff 3c 90 3e af 3c cc ad 7c 3a
       0.013308455 0.03118844 0.021392137 0.0009638935
000380 a8 17 a0 3a 78 48 2e 3b f7 b1 11 bb 87 04 1e bc
       0.0012214081 0.0026593488 -0.002223132 -0.009644634
000390 f7 9e 13 bd 62 e8 a3 bd 90 6c a6 bd a2 21 81 bc
       -0.036040273 -0.08003308 -0.081261754 -0.015763108
0003a0 fc da ed 3d d6 ab 94 3e 30 35 d5 3e 4d 45 01 3f
       0.116140336 0.2903735 0.4164214 0.5049637
0003b0 8d 70 14 3f c8 ad 07 3f 11 41 ce 3e 76 e5 a8 3e
       0.5798424 0.52999544 0.40284017 0.32987565
0003c0 db ec b8 3e 17 d5 d4 3e b9 ff c3 3e f4 18 86 3e
       0.36118206 0.41568825 0.38281038 0.26190913
0003d0 e3 29 d5 3d da f8 2a 3c ad 35 1c bd eb 56 e8 bc
       0.1040838 0.010435307 -0.038137127 -0.028361758
0003e0 8f a8 d2 3b 6c 4e 11 3d 35 a9 8f 3c af 8f c1 3a
       0.006428785 0.03547518 0.017536739 0.0014767552
0003f0 d6 79 1c bb 05 c9 c3 38 86 ca 12 bb 1c c7 21 bc
       -0.002387633 9.3357674e-05 -0.0022398545 -0.0098741315
